last_brain.pth (torch, 7259 bytes, 12 tensors)

fc1.weight f4 [30, 5]
00000000: 8479 b33e 5fe4 853e 5869 a7bd f971 123f
00000010: 4786 f5be f504 3f3f 1e7b 0e3f 364e c63e
00000020: 4535 cb3e 593b 98be 5982 a4bd 0a64 0a3f
00000030: 7400 423e 6bde b83e 978c dbbd 4fb4 26bd
00000040: 2d5a 3abd 4301 b1be 1f2c debd d7e3 113e
00000050: 5472 3f3f 0b69 083f da09 6b3e af76 d6bc
00000060: 36a1 123e 9b48 d0bd cbc4 cabe 11f3 3bbe
00000070: 4274 c4bd a4ab eb3c 74f0 bdbf cb55 1cbe
00000080: 274c 27bd 8e12 8abe 1214 99bb 1959 05c0
00000090: 12ac 0c3f f048 babe 7301 da3f 51be 8fbf
000000a0: 58ab 93be ad56 d73b 6a32 cebe 4e26 46be
000000b0: d74d e0be 0c1d 7e3f 8704 25bf bda4 42bf
000000c0: a85c 83bf 7f44 103f 2419 813f 0c8e 4ebe
000000d0: 92b8 41be 6e3a ea3e ac22 07bf 8604 663f
000000e0: 7777 37be 21e9 a4be fcd8 d8bd 0863 9f3d
000000f0: 778c a8c0 532a a5be ee1e c8c0 0dde bd3e
00000100: 80da cf3d 4518 9f3e ee62 4abe 8daa 433c
00000110: f915 463e 373e 173e fcdd c3be 31ac a2bd
00000120: e8d6 af3f 1ef3 353e a6ba 19be 42f0 a4bd
00000130: 648b 1fbe 46b3 fa3d 03ee 7cbd 4a48 16be
00000140: c3b2 fabd 7702 2d3e d669 42bd 3abc 02be
00000150: ddea 15be 4b0e 6b3e c054 84bf 7c53 213f
00000160: ae52 9f3f 9e9a 8ebf 28a7 573f f45c b43e
00000170: 312c 373c 30e8 0cbe cc4a 24be 9dbe 193f
00000180: 3841 483f 0992 013d 99a2 8ebf 24f9 583f
00000190: a0fc cc3e c2d7 223e 698f 853f a66e 6bbe
000001a0: 0dec a5be 67e7 11bf 3054 a03e 742d 4e3f
000001b0: 232e f23e 21d0 27bf 575e 77bc e8bc 82bd
000001c0: a3a9 c9bd 3d72 d73e 0a07 c83e 4269 323f
000001d0: 537e ca3e fbbc 52be 3c4b 94be e5c0 7e3e
000001e0: 9c11 38be 1d67 57bd 8aaf ea3d c1d0 03be
000001f0: bfff 6abe 71d0 7d3f ce15 4bbe 12cf d5bd
00000200: 802d 843f e6ad e1be 21f7 cd3f 7aa1 27c0
00000210: 3333 cf3d 0af3 f1be 89d9 a13e a079 c8c0
00000220: fe4f 1dbf cb5d 30bf 54e3 3cbf 824b 383e
00000230: a6c0 493f 335d 973e f5f5 173f 46cc b4bf
00000240: 843c 633f 25c7 aa3d 7602 f43e c539 3dbe
00000250: 112f a9bf 5f61 0f3f
0.35053647 0.26150796 -0.081743896 0.5720516 -0.47954008 0.7461694 0.5565661 0.38731545
0.3968908 -0.2973278 -0.08032674 0.540589 0.18945485 0.3610719 -0.10720175 -0.0406993
-0.045496155 -0.34571275 -0.10848259 0.1424707 0.74783826 0.5328528 0.22952977 -0.02617964
0.1431931 -0.101700984 -0.39603266 -0.18354441 -0.09592487 0.028768368 -1.4839005 -0.15267102
-0.04084411 -0.2696728 -0.004671582 -2.083563 0.5495006 -0.36383772 1.7031692 -1.1229955
-0.28841662 0.006571612 -0.40272838 -0.1935055 -0.43809387 0.9926307 -0.64460033 -0.7603262
-1.0262651 0.56354517 1.0085797 -0.20171374 -0.18918064 0.45747703 -0.5278728 0.8985065
-0.17916666 -0.32209113 -0.105882615 0.077825606 -5.2671466 -0.32258853 -6.2537756 0.37083474
0.101490974 0.31073204 -0.19764301 0.011942518 0.1934432 0.14769827 -0.38255298 -0.07942999
1.3737459 0.17768523 -0.15012607 -0.08053638 -0.15580517 0.12241225 -0.061750423 -0.14676014
-0.12241127 0.16895472 -0.047464214 -0.12767115 -0.14640374 0.22954671 -1.0338364 0.6301801
1.2447107 -1.1140935 0.84239435 0.35227168 0.01117997 -0.13760448 -0.16044158 0.6005648
0.78224516 0.03163341 -1.1143371 0.8475516 0.40036488 0.15902618 1.043439 -0.22991428
-0.32406655 -0.56993717 0.3131423 0.80538106 0.47300825 -0.65551955 -0.015098176 -0.06383687
-0.09846809 0.42079344 0.3906787 0.6969186 0.39549503 -0.20579903 -0.2896365 0.24878271
-0.17975467 -0.05258857 0.11459263 -0.12872602 -0.22949122 0.9914618 -0.19832537 -0.10439886
1.0326385 -0.44077986 1.6091043 -2.6192307 0.10117187 -0.47255737 0.3161128 -6.264847
-0.61450183 -0.68893117 -0.73784375 0.17997554 0.78809583 0.29563293 0.59359676 -1.4124839
0.88764215 0.08338765 0.47658128 -0.18479069 -1.3217489 0.5600795

fc1.bias f4 [30]
00000000: 3a27 a73e 13fd 60bf f4a9 d33d a81e 86be
00000010: aef5 663c 876c 56be b576 b83e 772d 68bf
00000020: 86a6 a7be f1af 0c3f 63b8 c93d af97 ac3d
00000030: 2421 a53e 7158 26be 9c3b 2f3f 8ddf 8bbe
00000040: df97 71be c65c 42bf 97b5 a9be daa9 48bf
00000050: 921e 94be b662 d73e d031 aabd 9df4 943e
00000060: 1fa8 aebe ef56 8abe f451 ecbe b95d 0a3f
00000070: 0ffd 3abf 7acf a3bf
0.32647115 -0.8788616 0.1033515 -0.26195264 0.014096661 -0.20939837 0.36028066 -0.90694374
-0.32744235 0.54955965 0.09849622 0.08427369 0.32251847 -0.16244675 0.6845033 -0.27318993
-0.2359309 -0.7592281 -0.33146355 -0.7838417 -0.28929573 0.42067498 -0.08310282 0.29092875
-0.3411264 -0.2701945 -0.46156275 0.5404926 -0.73042387 -1.2797692

fc3.weight f4 [3, 30]
00000000: 007c 88be 4bd6 8ebe 0177 30be bb61 9a3d
00000010: 28b6 9abe 687a 823d d2f6 933e ee14 2ec0
00000020: ea72 933d 683c 9bbf 2e54 f4bd cccb 56be
00000030: b0fb 1a3f 0232 76bd 48b7 ce3b 84c1 2b3e
00000040: 2e03 a4bc 8309 b3bf 74eb 1dbe ef49 27bf
00000050: 9b61 c03c 3b3d fbbe 93b3 133e d7ab 25be
00000060: c400 edbd 3640 c53e db16 a33f 2e3a 943f
00000070: 0ca2 29bf c325 7f3f ddb3 f2be 3948 c6be
00000080: 878f 3cbc f383 55bd 042b ddbe 4539 303e
00000090: 6f21 07bf e22b 383f 8966 103e 76af c6be
000000a0: cdd2 52be 529c 8abd fd3c fb3d 52f0 babd
000000b0: 49f1 7e3e c8ed 753d aaf1 0e3e ac41 4abf
000000c0: c80f 05bf 7116 b2bf bbc3 a6be 0251 56bc
000000d0: 0213 0e3e e98e 1fbe ff1d efbd 29bc 3bbf
000000e0: f6f7 d43f fca7 013f 476b a6be 7cce 3d3f
000000f0: 6652 a8bd 4bf1 21bf be6d 29be 045e 223e
00000100: cee7 443e e731 a63c 0326 c2be 322c b9bd
00000110: 2134 063e 69e9 c3be 5d1a 17bf f26e 963e
00000120: 7e5b aa3f af1f b7bd ac9d 64bf f698 f6bd
00000130: ae93 1f3d 5955 34bf e23e 613c f37d 0cbe
00000140: f651 26bf 346c fe3e 9c70 c13d b899 d03e
00000150: c731 8bbd 175d 9f3e f8f7 af3e f69d 0e3f
00000160: b264 bdbf 4ef3 c03f
-0.26657104 -0.27897868 -0.17232896 0.07538172 -0.302171 0.063710034 0.28899246 -2.7200274
0.071996525 -1.212781 -0.119301185 -0.2097618 0.60540295 -0.060106285 0.00630847 0.16773039
-0.020021047 -1.3987278 -0.1542185 -0.6534719 0.023484042 -0.49070153 0.14423971 -0.16178833
-0.11572412 0.38525552 1.274135 1.1580255 -0.6626289 0.99666995 -0.4740285 -0.38726977
-0.011508829 -0.05212779 -0.4319688 0.17209347 -0.5278539 0.7194196 0.14101614 -0.3880574
-0.20588227 -0.06768097 0.12267492 -0.09127869 0.2489673 0.06004122 0.13959375 -0.7900646
-0.51977205 -1.3913099 -0.32571205 -0.013080837 0.13874438 -0.1558186 -0.11675643 -0.73333985
1.6638172 0.5064695 -0.3250372 0.74143195 -0.08218841 -0.6325881 -0.1654577 0.15856177
0.19229051 0.020287467 -0.37919626 -0.09041633 0.13105823 -0.38264015 -0.590246 0.2938152
1.3309171 -0.0894159 -0.8930309 -0.12040894 0.038959198 -0.7044273 0.013747903 -0.13719921
-0.6496881 0.49691927 0.09445307 0.40742278 -0.06796604 0.3112571 0.34368873 0.5570978
-1.4796355 1.5074251

fc3.bias f4 [3]
00000000: 8aaa dcbd e52f 19be 1b91 a3be
-0.10774715 -0.14959677 -0.31946644

exp_avg f4 [30, 5]
00000000: 5f30 36ba b18b 96b9 fabd 97ba 32c4 e8b9
00000010: 32c4 e839 07ef f7b9 c366 98b9 67d6 25ba
00000020: b1aa adb9 b1aa ad39 2d63 47b9 c2c4 13b9
00000030: b9cb 61b9 5af1 f3b8 5af1 f338 0000 0000
00000040: 0000 0000 0000 0000 0000 0000 0000 0000
00000050: 3609 feb9 c431 60b8 a0ca 72ba 1ab3 88b9
00000060: 1ab3 8839 0000 0000 0000 0000 0000 0000
00000070: 0400 0080 0400 0000 3ea6 8a37 cc55 1cb9
00000080: 4b70 97b9 7e4b 8eba 7e4b 8e3a 8746 4ab7
00000090: 1115 6cb9 9a75 3b39 bd51 193a bd51 19ba
000000a0: 0000 0000 0000 0000 0000 0000 0000 0000
000000b0: 0000 0000 7fd4 75ba bac9 e4b9 a5ba 76ba
000000c0: af2a 88b8 af2a 8838 d374 6dba 2e7a 2eba
000000d0: 7f5d 88ba 9ce5 84b9 9ce5 8439 792a dc36
000000e0: cd5f 5639 ee8e 7eb8 c887 cb36 c887 cbb6
000000f0: 11e6 5e36 9974 95b9 b1c6 76b7 0208 8b3a
00000100: 0208 8bba 6e72 b8b8 0087 44b6 3cfd e6b8
00000110: c1bd 1936 c1bd 19b6 1739 7ab9 6af7 0dba
00000120: 6caa 8b38 50c6 1eba 50c6 1e3a 0400 0000
00000130: 0400 0000 0400 0000 0400 0000 0400 0080
00000140: 0400 0000 0400 0000 0400 0000 0400 0000
00000150: 0400 0080 6349 09ba 9e78 4a39 202f c0ba
00000160: dd54 e7ba dd54 e73a 578e 11ba de03 48b9
00000170: e970 1fba 7166 4539 7166 45b9 b9f4 b7ba
00000180: df6d 03ba cc3a bcba 4cd2 a5b9 4cd2 a539
00000190: 958d 0eba 12bd c3b9 436b 69ba 5819 11ba
000001a0: 5819 113a eb34 8b39 4324 ee39 c28e 1239
000001b0: 7bad 05b8 7bad 0538 0000 0000 0000 0000
000001c0: 0000 0000 0000 0000 0000 0000 a33d 1ab6
000001d0: eb79 6c39 f399 45b9 1417 0eb9 1417 0e39
000001e0: 0000 0000 0000 0000 0000 0000 0000 0000
000001f0: 0000 0000 0011 8b39 1f45 4c39 abf9 cab8
00000200: 4d50 4dba 4d50 4d3a b653 af3a ab99 8138
00000210: 38bf d73a a67f e5b9 a67f e539 e34e d335
00000220: 8e75 13b9 6461 0438 3d22 a838 3d22 a8b8
00000230: c855 99ba 6fb9 71ba 77ac 72ba b6d3 67ba
00000240: b6d3 673a 1579 20ba 7fdd aab9 becd 2bba
00000250: 6826 573a 6826 57ba
-0.0006949957 -0.00028714308 -0.0011577003 -0.00044396665 0.00044396665 -0.000472896 -0.00029068263 -0.0006326199
-0.00033124306 0.00033124306 -0.00019015065 -0.0001409231 -0.00021533565 -0.00011632098 0.00011632098 0.0
0.0 0.0 0.0 0.0 -0.00048453518 -5.345211e-05 -0.0009261761 -0.00026073382
0.00026073382 0.0 0.0 0.0 -6e-45 6e-45 1.6528295e-05 -0.00014909281
-0.0002888463 -0.0010856239 0.0010856239 -1.2056559e-05 -0.00022514562 0.0001787752 0.0005848667 -0.0005848667
0.0 0.0 0.0 0.0 0.0 -0.00093776727 -0.00043637847 -0.00094119675
-6.492936e-05 6.492936e-05 -0.00090582407 -0.00066557794 -0.001040384 -0.00025348074 0.00025348074 6.5614554e-06
0.00020444319 -6.0691433e-05 6.0656785e-06 -6.0656785e-06 3.3214494e-06 -0.00028506367 -1.4709004e-05 0.0010607245
-0.0010607245 -8.795118e-05 -2.9284856e-06 -0.00011014423 2.2909228e-06 -2.2909228e-06 -0.00023863126 -0.0005415591
6.65978e-05 -0.00060567725 0.00060567725 6e-45 6e-45 6e-45 6e-45 -6e-45
6e-45 6e-45 6e-45 6e-45 -6e-45 -0.0005237071 0.00019309155 -0.0014662482
-0.0017649193 0.0017649193 -0.00055525213 -0.00019074927 -0.00060821936 0.00018825546 -0.00018825546 -0.0014034725
-0.00050136255 -0.0014360785 -0.00031627936 0.00031627936 -0.00054379675 -0.00037334167 -0.0008904228 -0.00055350875
0.00055350875 0.00026551573 0.00045421915 0.00013976826 -3.1871237e-05 3.1871237e-05 0.0 0.0
0.0 0.0 0.0 -2.2983666e-06 0.00022552132 -0.00018844735 -0.00013550773 0.00013550773
0.0 0.0 0.0 0.0 0.0 0.00026524812 0.00019480706 -9.678615e-05
-0.0007832095 0.0007832095 0.0013376388 6.179822e-05 0.0016460186 -0.0004377339 0.0004377339 1.5743684e-06
-0.00014062805 3.1561955e-05 8.0172416e-05 -8.0172416e-05 -0.0011698538 -0.0009221052 -0.00092572666 -0.0008843498
0.0008843498 -0.0006121558 -0.00032589954 -0.00065537903 0.0008207322 -0.0008207322

exp_avg_sq f4 [30, 5]
00000000: f25c 2736 5358 c435 15b3 7c36 8b4e 1636
00000010: 8b4e 1636 7b37 c336 d66c c236 a251 c136
00000020: d8da 6336 d8da 6336 6ad7 8c35 3825 8a35
00000030: b923 9435 03ae 7435 03ae 7435 0000 0000
00000040: 0000 0000 0000 0000 0000 0000 0000 0000
00000050: d89c 5736 126c 3136 1902 9136 bf09 8436
00000060: bf09 8436 0000 0000 0000 0000 0000 0000
00000070: 0c63 262d 0c63 262d 891e 1d33 38f0 2935
00000080: a04e 1035 473d 8936 473d 8936 95e2 c534
00000090: a8af 2d36 3200 8435 7dab 7136 7dab 7136
000000a0: 0000 0000 0000 0000 0000 0000 0000 0000
000000b0: 0000 0000 b4f6 8137 fb76 2d37 7a1e 6637
000000c0: c7c9 9f37 c7c9 9f37 88a6 8336 dcea 9936
000000d0: 2bbc 6b36 568f 9a36 568f 9a36 ad08 b435
000000e0: 56d1 c035 7eb9 b235 111d d335 111d d335
000000f0: 78e2 3830 aa72 a636 f993 3932 3d8b 9c37
00000100: 3d8b 9c37 cbd7 e834 dd99 9534 11de 0a35
00000110: caa4 8e34 caa4 8e34 cb49 1f37 b2cb 5f37
00000120: a164 1737 5595 6d37 5595 6d37 cf1e 8c2c
00000130: cf1e 8c2c cf1e 8c2c e84e 7c2c e84e 7c2c
00000140: 7463 4c2b 7463 4c2b 7463 4c2b 9f67 372b
00000150: 9f67 372b 97cd 5137 3780 0b37 6544 af37
00000160: 5f12 8437 5f12 8437 322f de35 3220 7f35
00000170: 1b4f 1136 512f 4735 512f 4735 c5d1 3537
00000180: 816e f836 e881 3b37 8c92 6e37 8c92 6e37
00000190: aff1 b936 ab7d c036 a24d b336 4461 7736
000001a0: 4461 7736 d4f2 9136 761d 9936 8456 a036
000001b0: 1743 ab36 1743 ab36 0000 0000 0000 0000
000001c0: 0000 0000 0000 0000 0000 0000 b4ab 1236
000001d0: 17b1 4536 7128 0f36 72f6 3836 72f6 3836
000001e0: 0000 0000 0000 0000 0000 0000 0000 0000
000001f0: 0000 0000 8f40 2536 cbec ed35 3e1c 9636
00000200: e3df 7a36 e3df 7a36 fde1 6037 e552 c934
00000210: 868f 7637 acf0 7537 acf0 7537 6a1d 7531
00000220: e9b4 9035 2e13 8834 990c 6637 990c 6637
00000230: ac18 7937 9ca0 9537 e478 8137 4173 7437
00000240: 4173 7437 4ba2 4137 3b57 5c37 4df0 2537
00000250: 9448 6a37 9448 6a37
2.493904e-06 1.4628844e-06 3.7655166e-06 2.239746e-06 2.239746e-06 5.8179116e-06 5.7943207e-06 5.7613515e-06
3.395302e-06 3.395302e-06 1.0493507e-06 1.0292633e-06 1.1037256e-06 9.1150304e-07 9.1150304e-07 0.0
0.0 0.0 0.0 0.0 3.2128792e-06 2.643796e-06 4.321581e-06 3.935041e-06
3.935041e-06 0.0 0.0 0.0 9.458e-12 9.458e-12 3.6582183e-08 6.330697e-07
5.3758595e-07 4.090052e-06 4.090052e-06 3.685897e-07 2.5881254e-06 9.834823e-07 3.6011618e-06 3.6011618e-06
0.0 0.0 0.0 0.0 0.0 1.5492878e-05 1.0339306e-05 1.3716164e-05
1.9048237e-05 1.9048237e-05 3.923491e-06 4.5870966e-06 3.5127257e-06 4.606244e-06 4.606244e-06 1.341357e-06
1.436604e-06 1.3316019e-06 1.5729184e-06 1.5729184e-06 6.726064e-10 4.960534e-06 1.0802062e-08 1.8661487e-05
1.8661487e-05 4.3370378e-07 2.7865363e-07 5.1732155e-07 2.656946e-07 2.656946e-07 9.49432e-06 1.3339262e-05
9.023731e-06 1.416107e-05 1.416107e-05 3.9824598e-12 3.9824598e-12 3.9824598e-12 3.5855156e-12 3.5855156e-12
7.261338e-13 7.261338e-13 7.261338e-13 6.5158463e-13 6.5158463e-13 1.2505238e-05 8.314898e-06 2.0893474e-05
1.5744181e-05 1.5744181e-05 1.6554025e-06 9.5041753e-07 2.165273e-06 7.420213e-07 7.420213e-07 1.08372815e-05
7.4038403e-06 1.1176315e-05 1.4220026e-05 1.4220026e-05 5.5415653e-06 5.7366756e-06 5.3436534e-06 3.6862484e-06
3.6862484e-06 4.3496057e-06 4.563185e-06 4.7784433e-06 5.1040074e-06 5.1040074e-06 0.0 0.0
0.0 0.0 0.0 2.185564e-06 2.9458367e-06 2.13322e-06 2.7561587e-06 2.7561587e-06
0.0 0.0 0.0 0.0 0.0 2.4624494e-06 1.7726792e-06 4.473636e-06
3.7383222e-06 3.7383222e-06 1.3404057e-05 3.749948e-07 1.4696159e-05 1.4659174e-05 1.4659174e-05 3.5668912e-09
1.0781488e-06 2.534593e-07 1.3712001e-05 1.3712001e-05 1.4847301e-05 1.7836974e-05 1.5434292e-05 1.4570368e-05
1.4570368e-05 1.1541483e-05 1.3133332e-05 9.890716e-06 1.3964385e-05 1.3964385e-05

exp_avg f4 [30]
00000000: cc81 3fba 4656 32ba 35b7 4f38 0000 0000
00000010: 9aab 7338 0400 0000 36f5 0939 fdf4 6d3a
00000020: 0000 0000 06be 6a3b 67c1 27ba da64 f0b8
00000030: 4453 93bb b5ce edb8 86db ff39 0400 0000
00000040: 0400 0000 64bd 4ebb 36bd 2bba 46d8 703a
00000050: 1e43 abba 4aa1 6d3a 0000 0000 a708 10ba
00000060: 0000 0000 83ca a8ba fd78 c73a 8b95 bcbb
00000070: e93f fdb9 159a 17ba
-0.0007305413 -0.0006803017 4.952327e-05 0.0 5.809553e-05 6e-45 0.00013156686 0.00090773386
0.0 0.003581883 -0.00063993636 -0.00011462877 -0.00449601 -0.00011339543 0.00048800948 6e-45
6e-45 -0.003154599 -0.0006551327 0.00091875007 -0.0013066267 0.00090648665 0.0 -0.00054944534
0.0 -0.0012877736 0.0015218552 -0.0057551316 -0.00048303537 -0.0005783153

exp_avg_sq f4 [30]
00000000: d347 a837 8c98 0a37 beb0 ba36 0000 0000
00000010: 4e35 9d37 d8ec 672d 508a 0838 786a be37
00000020: 0000 0000 8548 0f39 0eb9 bf37 245d 3537
00000030: eb6a 0b39 7679 8e35 a6e9 9e38 cf1e 8c2c
00000040: 7463 4c2b 61a8 3a38 0c62 2f36 12a1 3038
00000050: 7d37 0f37 3031 3c38 0000 0000 754c 9237
00000060: 0000 0000 df7a 7b37 118c 2838 168b 0d39
00000070: 627f 1838 0275 ac37
2.0060606e-05 8.260959e-06 5.5638075e-06 0.0 1.874068e-05 1.318342e-11 3.255374e-05 2.2699343e-05
0.0 0.00013664558 2.2855147e-05 1.0810127e-05 0.00013295903 1.0615174e-06 7.5775475e-05 3.9824598e-12
7.261338e-13 4.450267e-05 2.6134103e-06 4.211168e-05 8.536384e-06 4.4868502e-05 0.0 1.744016e-05
0.0 1.4989374e-05 4.018477e-05 0.00013498621 3.635826e-05 2.0558484e-05

exp_avg f4 [3, 30]
00000000: eb84 d237 5ec9 97b8 ea0b 2f39 0000 0000
00000010: d1ae 183a 0400 0000 130f 60ba 1979 d437
00000020: 0000 0000 ea47 8aba dae1 7b39 efba bc38
00000030: e152 42ba c66d 0338 c9a0 62b8 0000 0000
00000040: 0000 0000 c5a3 eb39 0613 3339 418e 0e3a
00000050: 0da5 493a ca2d 0639 0000 0000 f879 1eb9
00000060: 0000 0000 7cde 8839 3168 8539 9be8 a0ba
00000070: 06fb 513a 808c 1339 28cb e83a e4a5 2d39
00000080: 4a5a 883a 0000 0000 d95f a03a 0000 0000
00000090: 4e7d 2fba f4b2 9e3a 0000 0000 a12f a5ba
000000a0: f286 d13a 59c2 7d39 3b37 9bb9 8908 9d38
000000b0: e401 543b 0400 0000 0400 0000 a70f e63a
000000c0: 0b54 0f3a 5bc3 463a cd45 e13a 7522 3b3b
000000d0: 0000 0000 4148 5e38 0000 0000 688c af3a
000000e0: 0c44 833a bd1f e2ba 8c0d 9b3a cf0d 3a39
000000f0: 662c 783a a380 093a 7d1d 3d3a 0000 0000
00000100: 738c 4b3a 0000 0000 73c8 34ba 8e4b cc3a
00000110: 0000 0000 9f76 90ba 1eee 6c3a db40 9d38
00000120: 5a5e bcb9 cfe7 0db5 3ef4 093a 0000 0000
00000130: 0000 0000 a3ef ad3a ea4c a039 cbb4 6cba
00000140: 3ce6 063a a39d 873a 0000 0000 b83b db37
00000150: 0000 0000 b31c 863a 8db0 1eb9 4d3f b8ba
00000160: 1f09 94ba 1efd 3dba
2.5095846e-05 -7.237749e-05 0.00016693739 0.0 0.00058243895 6e-45 -0.0008547168 2.532876e-05
0.0 -0.0010549997 0.00024021362 8.999358e-05 -0.00074128626 3.133507e-05 -5.403234e-05 0.0
0.0 0.0004494471 0.00017077857 0.00054380676 0.0007692136 0.00012796294 0.0 -0.00015113491
0.0 0.00026105705 0.00025445365 -0.0012276353 0.00080101227 0.00014071353 0.0017760741 0.00016560365
0.0010402885 0.0 0.0012235596 0.0 -0.0006694392 0.0012107776 0.0 -0.0012602695
0.0015985651 0.0002420036 -0.00029605054 7.487933e-05 0.003234976 6e-45 6e-45 0.0017552272
0.00054675405 0.0007582211 0.001718694 0.0028554474 0.0 5.2996216e-05 0.0 0.0013393285
0.0010014786 -0.001725189 0.0011829599 0.00017743486 0.0009467065 0.00052453036 0.0007214172 0.0
0.0007764764 0.0 -0.00068963243 0.0015586482 0.0 -0.001102168 0.0009038168 7.498424e-05
-0.00035928452 -5.286392e-07 0.000526253 0.0 0.0 0.001327027 0.00030574884 -0.0009029626
0.0005146002 0.0010346662 0.0 2.6134643e-05 0.0 0.0010231942 -0.00015133824 -0.0014056951
-0.0011294222 -0.0007247495

exp_avg_sq f4 [3, 30]
00000000: c20e 0038 5a79 2937 c5e4 5837 0000 0000
00000010: be0e 0038 ec3a fd2a 49c4 6237 4ca0 b632
00000020: 0000 0000 225c b138 ec1d aa37 9a18 0f37
00000030: 36a3 2737 7af8 d435 3e66 c438 0000 0000
00000040: 0000 0000 1bd2 7b37 8a7e 0437 7e52 fb37
00000050: 7f55 c637 afcd 2e38 0000 0000 c6d4 2138
00000060: 0000 0000 35f5 7437 d296 fd36 0eb5 4e38
00000070: 74dc 5c38 fbdc 5336 cc83 9d37 2976 4c36
00000080: 54bd ed36 0000 0000 ef05 5837 0000 0000
00000090: 1130 2237 c9e5 9d36 0000 0000 5044 8338
000000a0: 0fd9 3337 c7d9 8f36 cf7e 9336 7b05 2e35
000000b0: dbc3 9e38 c8df 6f2c 31e4 6628 695c 4f37
000000c0: c387 3836 1618 3d37 7646 4b37 8593 0f38
000000d0: 0000 0000 acfb c237 0000 0000 7ff2 fc36
000000e0: 590c 8e36 f05f 1838 fd15 bd37 47f4 0a35
000000f0: 6239 3738 01bf 0e37 4a9b 9437 0000 0000
00000100: 8a01 e337 0000 0000 e399 d236 3d70 8637
00000110: 0000 0000 433e e237 b0cd bc37 7d74 ba36
00000120: 38cd 1f37 7f83 8035 8deb 8f38 0000 0000
00000130: 0000 0000 f44b 3c37 8d8b ea36 3329 d637
00000140: 55ba 6437 feb7 5c38 0000 0000 6da7 ff37
00000150: 0000 0000 7bd7 8e37 be00 6b34 3067 5c37
00000160: f42c 1438 fe8a 5836
3.0531322e-05 1.0101439e-05 1.2927868e-05 0.0 3.0531308e-05 4.4982713e-13 1.3516351e-05 2.1260483e-08
0.0 8.457179e-05 2.0279513e-05 8.529192e-06 9.991976e-06 1.5867547e-06 9.3650524e-05 0.0
0.0 1.5009685e-05 7.897275e-06 2.9959945e-05 2.3643252e-05 4.167639e-05 0.0 3.8583552e-05
0.0 1.4600625e-05 7.5575454e-06 4.9282848e-05 5.26574e-05 3.1570078e-06 1.8777231e-05 3.0467147e-06
7.085191e-06 0.0 1.2875985e-05 0.0 9.667144e-06 4.705715e-06 0.0 6.259291e-05
1.0719769e-05 4.2870847e-06 4.395704e-06 6.4828026e-07 7.570508e-05 3.4088166e-12 1.2817046e-14 1.2359677e-05
2.749716e-06 1.1270886e-05 1.2116148e-05 3.4231245e-05 0.0 2.3243796e-05 0.0 7.5384155e-06
4.2333672e-06 3.6328973e-05 2.2540795e-05 5.1764476e-07 4.3684042e-05 8.508331e-06 1.7715287e-05 0.0
2.7061225e-05 0.0 6.2764025e-06 1.602631e-05 0.0 2.6970292e-05 2.2507127e-05 5.556793e-06
9.52492e-06 9.575014e-07 6.862646e-05 0.0 0.0 1.1223357e-05 6.9899893e-06 2.5529973e-05
1.3633243e-05 5.2623443e-05 0.0 3.0476333e-05 0.0 1.702806e-05 2.188635e-07 1.3137047e-05
3.5327816e-05 3.2267412e-06

exp_avg f4 [3]
00000000: a1e8 afba 9575 543a 55bb 96b9
-0.0013420769 0.00081046793 -0.00028749803

exp_avg_sq f4 [3]
00000000: 6e40 e338 d04c a738 9894 a638
0.000108362045 7.977488e-05 7.9431746e-05
